…
ch, 32) Prevent overfitting Dense 1 Fully Connected 64 ReLU (batch, 64) Non-linear mapping Dropout 3 Regularization 10% - (batch, 64) Fine-tuning regularization Output Fully Connected 30 Linear (batch, 30) Temperature predictions <p>Total Parameters: ~85,000</p>"},{"location":"ml-training/#model-summary","title":"Model Summary","text":"<pre><code>Model: \"boiler_lstm\"\n_________________________________________________________________\nLayer (type)                Output Shape              Param #   \n=================================================================\nlstm_1 (LSTM)              (None, 60, 64)            19,200    \ndropout_1 (Dropout)        (None, 60, 64)            0         \nlstm_2 (LSTM)              (None, 32)                12,416    \ndropout_2 (Dropout)        (None, 32)                0         \ndense_1 (Dense)            (None, 64)                2,112     \ndropout_3 (Dropout)        (None, 64)                0         \noutput (Dense)             (None, 30)                1,950     \n=================================================================\nTotal params: 35,678\nTrainable params: 35,678\nNon-trainable params: 0\n</code></pre>"},{"location":"ml-training/#data-pipeline","title":"Data Pipeline","text":""},{"location":"ml-training/#data-collection","title":"Data Collection","text":"<p>Source: Historical boiler operation data</p> <pre><code>graph LR\n    A[Boiler Se
…
